app/src/main/ml/model_4.tflite (tflite, 807968 bytes, 16 tensors)

sequential_3/conv2d_19/BiasAdd/ReadVariableOp f4 [32]
00000000: cdee 6f3d 66b5 c2bb 9d0d 2cbb 145b 7dbd
00000010: 787a 11bc 958f ae3c 4b84 c93b 9281 833c
00000020: 2b2c 70bc 1225 b9bb 882e 213d 7303 a2bd
00000030: 3a50 e3bd d583 9ebd 90f2 5ebc 6fd0 f93c
00000040: 356a 51bc 3546 cfbc 8c91 073d a7ff cd3c
00000050: 93fd 073d e2c8 143d f8b9 46bc db05 aabc
00000060: eb89 37bc a891 c03c d5fc abbc 00df 27bc
00000070: afbf 063d 0c22 c4bc e083 94bc 2ddd 243d
0.058577348 -0.0059420345 -0.0026253231 -0.061854437 -0.0088792965 0.0213087 0.0061498038 0.016052995
-0.014658968 -0.005650171 0.039351016 -0.07910814 -0.110992864 -0.07739989 -0.013607636 0.030494897
-0.012781669 -0.025302032 0.03309779 0.025146319 0.03320081 0.03632439 -0.012129299 -0.020754745
-0.011202316 0.023506954 -0.020994583 -0.010246038 0.032897647 -0.023942016 -0.01812929 0.040249992

sequential_3/conv2d_20/BiasAdd/ReadVariableOp f4 [64]
00000000: 237b c23c a630 a5bc 65e5 63bd 0469 2c3d
00000010: bd3f 6f3c 3dbc 8dbc e836 1bbb 2425 163d
00000020: d965 9bbc a8e8 8bbd 24c1 73bc 33a0 2ebc
00000030: 2431 d4bc df19 5bbc 0cff 1b3b 4698 8c3c
00000040: d14d 463c 5212 5ebc 3e75 bcbc 18b0 073d
00000050: 4a8f 28bc 881b 0e3d f78a 6d3c a70e 32bb
00000060: 2fd6 943c 8a19 5bbc 5b05 f23c b01d 393d
00000070: 9564 e5bc 72e9 b5ba 8342 823c 3e13 b93c
00000080: e9c4 72bc 47f3 dd3b b466 123c 5663 0fbd
00000090: 614d 49bc adf1 173a 344a 803c cf4b 9dba
000000a0: 5e12 c7bc f757 0ebd 9a74 c4bc b485 cebc
000000b0: 3ddd 523c a693 b83c 3388 52bd 3f7e 3fba
000000c0: 64a5 e4bb 0ed7 e13b 0ca5 5dbc bf00 4dbc
000000d0: 9ba8 423b 74ca 43bc ea51 0ebd acbd b13c
000000e0: 5d15 6ebc 81ca 52bd a591 8dbb 6f97 023c
000000f0: 5adc 943c b2c0 d33b daf4 e6ba 9e8b f13b
0.023740357 -0.020164799 -0.05563869 0.04209234 0.014602599 -0.017301673 -0.002368385 0.036656514
-0.018969463 -0.06831485 -0.014877591 -0.010658312 -0.025902338 -0.013372867 0.0023803143 0.017162453
0.012103514 -0.013554173 -0.023005124 0.03312692 -0.010288069 0.034694225 0.014498464 -0.0027169378
0.018168537 -0.013372788 0.02954357 0.045194328 -0.028002063 -0.0013878776 0.015900856 0.022592183
-0.014817455 0.0067733857 0.008935619 -0.035006844 -0.012286515 0.00057962054 0.015660383 -0.0012000742
-0.02430075 -0.03475186 -0.023981381 -0.025210239 0.01287013 0.022531342 -0.05139942 -0.0007304884
-0.006977724 0.0068920916 -0.01352812 -0.012512385 0.0029702547 -0.011950124 -0.034746088 0.021696888
-0.014531461 -0.051462654 -0.0043203407 0.007970675 0.018171478 0.00646218 -0.0017620579 0.00737138

sequential_3/conv2d_21/BiasAdd/ReadVariableOp f4 [64]
00000000: 92f4 d1bc d11a 4ebc a151 1abc 0cba 18bc
00000010: e5a3 1f3d a0b0 aebc 08cf 03bd 3b1d c8ba
00000020: e41a 3d3b a747 803c 2542 29bc eba9 44bc
00000030: 77c4 07bd f7d3 fcbc e64d 9bbc 5b22 e4bc
00000040: 071f b8bb b280 ccbc 02f8 ddbc 3caa 66bd
00000050: 7f51 48bc 89ba ac3b 4177 4dbc d886 ebbb
00000060: ef7e cfbb fb21 3bbd 0fbd 6abd 48d2 bfbc
00000070: dc0b abbc c2f7 17bd 4c5d 87bc a100 b13c
00000080: 7abe 003a c3c0 d4bb 996c 0fbd c694 f1bc
00000090: d5b0 1dbc 41cd 54bc b96e b0bc cdd7 0abd
000000a0: 1ecc 443c 88e2 1bbc 4c1a 56bc d40d fdba
000000b0: 5640 dbbc 25f1 94bb 9206 893c 62f8 0c3d
000000c0: 18ea 92bc 9ea1 cfbb 85dc 95bc 7154 99bc
000000d0: eccd b6bc aba5 ecbc 57a2 393b da09 2fbd
000000e0: fd7d 3e3b 3d5f c6bc ee4c c2bb ef6b 80bc
000000f0: 5ff6 ecbb 41f7 963c ac2c f7bb c3ba 19bd
-0.025629316 -0.012579636 -0.009418876 -0.009321701 0.03897466 -0.021324456 -0.032179862 -0.00152675
0.002885514 0.015659166 -0.0103307115 -0.012003402 -0.033146348 -0.030862791 -0.018958043 -0.027848413
-0.005618933 -0.02496371 -0.027095798 -0.056314692 -0.012226461 0.00527126 -0.012540639 -0.0071877055
-0.0063322703 -0.045686703 -0.057309207 -0.0234157 -0.020879678 -0.037101515 -0.01652398 0.021606745
0.0004911196 -0.0064927056 -0.035015676 -0.029489886 -0.00962468 -0.0129883895 -0.021537172 -0.03389721
0.012011556 -0.0095144585 -0.013067793 -0.0019306489 -0.026764076 -0.004545348 0.016726766 0.034416564
-0.01793389 -0.006336405 -0.018293628 -0.018717023 -0.022314988 -0.02888759 0.0028325522 -0.042734005
0.0029066794 -0.024215335 -0.005929581 -0.015676467 -0.007231518 0.018428447 -0.007543167 -0.037531625

sequential_3/conv2d_22/BiasAdd/ReadVariableOp f4 [64]
00000000: 449e f2bc 98df 02bd 2caf afbc 07bf f8bc
00000010: ffe8 d9bc e23f 773b 0084 36bc 3b83 02bd
00000020: 66f3 cbbc b66c f0bc f008 a1bb fd05 e5bc
00000030: 1b2a a8bc 49ac 54bd e6d9 0ebd 3e31 4ebd
00000040: aa12 8e3b 9369 83bc adf8 60bd 0eef c9bc
00000050: 3bce e1bc 681d 82bc 00b9 4cbd 4653 153b
00000060: cd0b 18bc 3487 c7bc 7ded 07bd 3a4b 89bc
00000070: 4f9d 263c a5ec 86bc ea73 97bc 12ea 56bd
00000080: d0e0 6abc a801 a4bc 8acb f43b fd54 0239
00000090: f25b e4bc a53e fcbc 7235 bcbc 482e d4bc
000000a0: 3930 1abd 98da a13a 28e9 0cbd 6a01 c5bc
000000b0: 1105 f9bc 6aa6 27bc 75b2 0d3b 3730 05bd
000000c0: 147e f5bc ed4d 9d3c fc0e b0bc f7d6 973c
000000d0: d536 d9bc 2ede 92bb 71dc 2fbc e96a 99bc
000000e0: dfe3 adbc 8253 acbb ce2f 6fbd e174 1fbd
000000f0: fc24 00bd 2c69 eebc 5bbf 04bd d0a8 afbc
-0.029616483 -0.031951517 -0.021445833 -0.030364526 -0.026600359 0.0037727286 -0.01113987 -0.031863432
-0.024896335 -0.029348712 -0.0049143955 -0.027956957 -0.02052789 -0.051922116 -0.034875773 -0.05033993
0.004335721 -0.016041553 -0.054924656 -0.024650123 -0.027564159 -0.015883163 -0.049981117 0.002278523
-0.009280157 -0.024356462 -0.03318547 -0.016759504 0.010169341 -0.016470263 -0.01848789 -0.05246932
-0.014335826 -0.020020321 0.007470553 0.00012429427 -0.027875874 -0.03079159 -0.022974703 -0.025900975
-0.037643645 0.0012348471 -0.034402043 -0.024048526 -0.030397924 -0.010232547 0.0021621261 -0.032516684
-0.029967345 0.019202197 -0.02149152 0.01853512 -0.026515404 -0.0044820523 -0.01073371 -0.018727737
-0.021226821 -0.0052589783 -0.0583952 -0.038929824 -0.03128527 -0.029102884 -0.032409053 -0.0214428

sequential_3/conv2d_23/BiasAdd/ReadVariableOp f4 [64]
00000000: df84 28bd 598c a8bc 940b 853c 19a0 a3bc
00000010: b950 b2bc b24e c5bc 034b 51bc e1fa 3cbd
00000020: 91b3 dcbc 106a 13bd e196 26bc 9f86 13bd
00000030: 17a1 933d 7c15 943c f3b6 f0bc 19c5 38bd
00000040: 8009 70bb 3b2f 65bc f09f 16bc fac5 05bd
00000050: 8ccf bdbc f96d 2fbd a793 683d fc08 943c
00000060: 03f5 d9bc f9ad e2bc ec86 8bbc 8b4d 13bd
00000070: 6305 dcbc 6e97 32bd 7ba1 1bbd 0d74 e1bb
00000080: d623 2bbd b358 d1bc 0ab2 ecbc 6a0c 00bd
00000090: 95b2 b5bc 8075 23bd 27fe 1f3d bb98 2dbd
000000a0: 006c fbbc 66a6 1abd af12 1bbd 8cba 2dbc
000000b0: 318a 12bd 4d63 eebc 1f7c c1bc 731d adbc
000000c0: 9b2c 323d 39b8 2bbd a844 29bd 7d2d 09bd
000000d0: beb3 c2bc af62 a0bc f86f 11bd 1fb3 26bd
000000e0: 1858 7bbc f54c f3bc e053 653d 2d47 c8bc
000000f0: 3ca7 52bc 1ba7 e8bc 76b6 a43d f6b6 76bd
-0.04114234 -0.020574735 0.016240872 -0.019973801 -0.021767007 -0.024085376 -0.012774232 -0.046137694
-0.026941093 -0.03598982 -0.010167808 -0.036017057 0.0720846 0.01807665 -0.029384112 -0.045109842
-0.0036626756 -0.013988311 -0.0091934055 -0.03265951 -0.023170255 -0.042829487 0.056781437 0.01807069
-0.026606089 -0.027670847 -0.01703211 -0.035962623 -0.026858037 -0.043601446 -0.037995797 -0.0068802894
-0.041782223 -0.02555499 -0.02889349 -0.03126184 -0.022179881 -0.03990698 0.039060738 -0.042381983
-0.030691147 -0.037756346 -0.037859615 -0.010603558 -0.03577632 -0.029100085 -0.023618756 -0.021132207
0.04349957 -0.041923735 -0.04132524 -0.033490647 -0.023767348 -0.019578306 -0.035507172 -0.040698167
-0.015340827 -0.029699782 0.055988193 -0.024448002 -0.012857255 -0.028399995 0.08042614 -0.06023308

sequential_3/conv2d_24/BiasAdd/ReadVariableOp f4 [64]
00000000: e661 36bd f5b5 fbba 68ba 57bd 6ed2 243c
00000010: 0fff 60bd 5b2e 1dbd 801f d1bc d505 e53d
00000020: 943c 19bc 2292 953d 23de b0bc 5e5d d63c
00000030: eb94 91bc 094f ef3d 39ce 1bbd 9115 27bd
00000040: 35e8 31bc 19c9 c0bc 9385 26bd ab84 1dbc
00000050: eed0 95bc 5fa5 ca3d 9546 d9bb d7c7 4c3c
00000060: 24b6 ec3d f9de 20bd 800e a0bc 9888 f1bc
00000070: 0428 17bd 57bc 34bd 96ae 49bc 83fe 2dbd
00000080: adb8 bbbc 6339 e53d 0b8e c03d 1f5f f1bc
00000090: e273 0c3e eea5 debc 011f d0bc f737 653d
000000a0: 9091 04bd d55f f33d 75e0 4fbc a47a e3bc
000000b0: 5dcd e1bc 0022 5f3d fd1d e2bc bffd 803d
000000c0: 4608 27bd bab6 d6bc 40a3 9cbc f306 81bc
000000d0: f639 cbbb 8335 083b eca3 ed3d f761 443b
000000e0: 0c96 33bd 75ba 00bc 9bae 473c 1486 c23b
000000f0: 956d 79bd 289d f3bb 34b3 2c3d 7d65 1fbd
-0.044526957 -0.0019204008 -0.052668005 0.010059936 -0.054930743 -0.038374286 -0.025527716 0.11182753
-0.009352822 0.07303263 -0.021590298 0.026167568 -0.017771205 0.11684997 -0.038038466 -0.04079205
-0.010858585 -0.02353339 -0.04065473 -0.00961415 -0.018288102 0.09894823 -0.0066307285 0.012498817
0.11558178 -0.039275143 -0.019538164 -0.029484078 -0.036903396 -0.044124927 -0.012309691 -0.04247905
-0.022915209 0.11192586 0.094020925 -0.029464303 0.13716081 -0.02717873 -0.025405409 0.055961575
-0.03236538 0.11883513 -0.012687792 -0.02776844 -0.027563745 0.054475784 -0.02760219 0.06298398
-0.040779375 -0.026210178 -0.019120812 -0.015750384 -0.006201978 0.0020783849 0.11603531 0.0029965618
-0.043844268 -0.007856955 0.012187625 0.0059363935 -0.06089552 -0.007434506 0.04216309 -0.038915146

sequential_3/conv2d_19/Conv2D f4 [32, 3, 3, 3]
00000000: b5e2 b93d 7ebd e6bd 3bfd 1f3e 18bc 213e
00000010: 5290 243c 2d1f 5ebd c25b f53b e47e e23d
00000020: 6b10 93bd ea7d 96bd d2bd 5ebc 7dc9 093e
00000030: df88 ae3d 982e 693d 9e7b 1e3d 4eb0 a43c
00000040: ac39 c53c 6637 c1bd d346 9bbd 26a4 0abe
00000050: 9833 8c3d a467 1d3c cfdf 3ebe bd21 15be
00000060: 7d59 c6bd 579e 97bd 3b75 0f3d ec05 763d
00000070: b64a e1ba 3223 d3bd 45ed 03bd 443f 49bd
00000080: a23d 913d 5efa ccbd 55f8 be3d 930b 11bd
00000090: 7cda 1c3d 33d2 e6bd b9d2 eb3d bb2e d6bb
000000a0: 1582 6e3c 94f6 88bd 99ad a93d 54d0 a5bd
000000b0: 4f2e a1bd 3289 56bd 5ff1 363d cf26 58bd
000000c0: 34ef 2fbd f635 8d3d 3cda b2bd 5c34 0dbe
000000d0: 4554 6fbc b183 923d cab0 e1bb 44a6 4fbd
000000e0: c0d9 63bb 917f 9ebb ae39 51bd 722c 91bd
000000f0: bf1f d5bd 08b2 2dbd 163a fdbd 07b1 db3d
00000100: 96c1 9abd cfa1 91bd 7902 8d3d 8388 053e
00000110: 5a38 a8bd 5b99 9dbd a12c 09be 7436 dd3d
00000120: f129 f6bd b43c 173c 24ee 023d 6c99 bcbd
00000130: 709f dfbc 51d8 94bd 603f edbb eb24 2c3c
00000140: 5496 88bd a65f d0bd 1522 a13d 1541 a63d
00000150: e108 d93d 0755 ff3d c8c1 9b3d a305 8b38
00000160: f1d6 043d e109 d1bd 1be5 d63d dfbe cabd
00000170: 48c8 4f3d c2dd eb3c 5934 ed3d facb 05be
00000180: 0c5e 1d3d 01d8 7a3c 81c1 b8bd c73a b3ba
00000190: 5267 1dbd 747c 08be 64a4 0b3e 639b aabc
000001a0: 5a5d 78bd bdb1 e63d 7226 efbc d3d8 2fbd
000001b0: 31b8 2e3c fb53 62bd d008 233c 1136 193d
000001c0: cf61 efbd 5cf6 e2bc 795d 93bd b849 f4bc
000001d0: 476c cbbd 2f7c febd 4aca cfbd a439 8e3d
000001e0: 47b4 e1bd 7234 953d 2fc5 59bd 11da 00be
000001f0: 1e66 9bbc 1cef b93d 83a5 06be 236c 463d
00000200: 284f babd 094d 78bd 860e b6bd dcf1 b63b
00000210: 88fa f23d 1970 223d 4611 b3bd ca51 083e
00000220: c106 a63d 1b26 a8bc bd89 8e39 756d f33d
00000230: ddaf 183e 4f7b ec3d 4757 b03d 78e1 c9bd
00000240: fb84 4dbd 37c2 26be 8555 06bc 3280 013e
00000250: 16ef acbd f257 fb3d b322 803c e212 17be
00000260: 0fbf abbd aecc a03d a25a 913b 30f0 5bbb
00000270: f389 32bd d914 32be 7ca5 603d 326a ecbd
00000280: 4364 10bd f1ee babd 01da 98bc 0d26 96bd
00000290: a68b cf3c fbc9 19be af24 ec3d 4dfa 0d3e
000002a0: e009 1a3d 3c14 90bd 9c08 df3d 4393 b13d
000002b0: cc4e 843d 01a4 bc3d 1c14 9bbd a76a 82bd
000002c0: 880f 873d 71a3 5f3d a880 833c 8a73 99bd
000002d0: 0ed7 b3bd caed b43b 6297 dd3d ddc8 29be
000002e0: 9ad1 81bc df9f 85bd bb7e 453d cee9 24bd
000002f0: bd32 c6bd d457 8bba 86dd 3bbd 994f 103e
00000300: 032b 15bc 7980 12be da54 003e dd2f 0e3e
00000310: be6e 07bd eb44 82bd f480 fcbd e21a fc3a
00000320: 8ee3 883d 3820 093e 1298 21be b8b8 2cbb
00000330: 3457 5abd b922 2bbc 9d13 e5bb 73cd c03c
00000340: 9864 2ebd d82d f338 8aa5 8c3a a26d a13c
00000350: a4f9 e73d e3a7 fd3d 65ad 0cbe 12c5 e53c
00000360: 9dcb 1c3d 9ab4 433d bac5 eabd 39ec b93c
00000370: d94e fc3b 7efb f1bd 4207 a13c cfdb 5d3c
00000380: eee1 313d 0578 383d 8a7d ac3d 7a54 83bc
00000390: 2df1 07bd 66cc e2bd e9cb ebbd 74d7 33bd
000003a0: f4bd b4bd 5118 633c 466d d73d 3743 b9bd
000003b0: b42d dcbd 9629 bfbd 262d 14be f89e 91bd
000003c0: a68b ba3c 5522 733d fca7 26bd c13a 083e
000003d0: a5a3 383e 2312 683c ca71 afbd 6226 abbd
000003e0: 23d6 41bd 72f9 df3d dbad f33c 11de 873a
000003f0: 1ef3 293e 09dc d83d 7cf2 bdbc b614 4d3c
0.09076444 -0.112666115 0.15623944 0.15794408 0.010044174 -0.05422895 0.007487745 0.11059359
-0.07180866 -0.07348235 -0.013595061 0.13455768 0.085222 0.0569292 0.03869211 0.0201036
0.024075352 -0.094343945 -0.07581868 -0.1353918 0.06845778 0.009607229 -0.18640064 -0.14563651
-0.09685037 -0.07403248 0.03502391 0.06006424 -0.0017188403 -0.10309447 -0.0322087 -0.0491326
0.07091834 -0.10008691 0.09324709 -0.03541143 0.0382943 -0.11270561 0.115148015 -0.0065363324
0.014557381 -0.06687656 0.08285064 -0.08096376 -0.07870161 -0.052376933 0.044663783 -0.052771386
-0.04295273 0.06895058 -0.08733031 -0.13789505 -0.014607494 0.071540244 -0.00688753 -0.050695673
-0.003476724 -0.0048369844 -0.0510804 -0.070885554 -0.10406446 -0.042406112 -0.12364595 0.10727125
-0.07556455 -0.07110941 0.06885237 0.13040356 -0.08213873 -0.07695266 -0.13395931 0.10801402
-0.120197184 0.009230781 0.03196539 -0.092089504 -0.027297705 -0.072678216 -0.007240221 0.010506849
-0.06669298 -0.101744935 0.07867829 0.08117882 0.10597397 0.124673896 0.0760532 6.6290864e-05
0.032431547 -0.102069624 0.10492917 -0.09899687 0.050728112 0.028792266 0.1158225 -0.13066092
0.03841977 0.015310288 -0.09021283 -0.0013674133 -0.038428612 -0.13328725 0.13636929 -0.020826047
-0.060635902 0.1126437 -0.029193137 -0.04293139 0.010664032 -0.05525587 0.0099508315 0.037405077
-0.116885774 -0.027705364 -0.07195563 -0.029820308 -0.09932762 -0.1242603 -0.101460055 0.06944588
-0.11020713 0.07285394 -0.053166565 -0.12583186 -0.018969592 0.090788096 -0.13149075 0.04844297
-0.09097129 -0.06062034 -0.08889489 0.005583031 0.11864191 0.039657686 -0.08743529 0.1331245
0.08106757 -0.020525983 0.00027186974 0.11886112 0.14910837 0.11546957 0.08610397 -0.09857458
-0.05017565 -0.16285025 -0.0081991 0.12646559 -0.084440395 0.122726336 0.015641546 -0.14753297
-0.08386051 0.078515396 0.004435853 -0.003355991 -0.04358859 -0.17390765 0.05484532 -0.11543693
-0.035251867 -0.09127606 -0.01865864 -0.07331476 0.025335144 -0.15018456 0.11530434 0.13865013
0.037607074 -0.070351094 0.10890314 0.08670666 0.06460342 0.09210969 -0.07572195 -0.063679986
0.06594759 0.05459923 0.016052559 -0.074927405 -0.08781253 0.0055215107 0.108198896 -0.1658053
-0.015847016 -0.065246336 0.048216563 -0.040262036 -0.09677646 -0.0010631033 -0.045865558 0.14092864
-0.009104493 -0.14306821 0.12532368 0.13885446 -0.033064596 -0.06360801 -0.12329283 0.0019234086
0.066840276 0.13391197 -0.15780666 -0.0026355218 -0.05330582 -0.01044529 -0.0069908635 0.023535466
-0.042576402 0.00011595682 0.0010730487 0.019705597 0.11326912 0.123855375 -0.1373802 0.028048072
0.03828012 0.047779657 -0.114634946 0.022695648 0.007699829 -0.118155465 0.019656781 0.013541176
0.043428354 0.045036335 0.08422382 -0.016031493 -0.033188988 -0.11074142 -0.11513502 -0.043906644
-0.08825293 0.013860778 0.10518889 -0.09046023 -0.10750905 -0.09334104 -0.14470348 -0.07110399
0.022771668 0.059358913 -0.040687546 0.13303663 0.18031175 0.01416448 -0.085666254 -0.0835693
-0.047323357 0.1093625 0.029745987 0.0010365864 0.16596648 0.105888434 -0.023186915 0.012517145

sequential_3/conv2d_20/Conv2D f4 [64, 3, 3, 32]
00000000: dc8e 3b3d 801a bbbc 3b22 60bd d18c 97bc
00000010: 3716 433d 1cf4 f43c a529 bd3d 4fd8 21bd
00000020: a7cc 3e3d a3d7 d7bb 72cc af3d c6b0 753d
00000030: 5a6f 33bd 5fc7 cf3a 91e6 b23c f665 70bd
00000040: 4add 0bbd 568b 2fbc 7107 873d b4a1 b5bb
00000050: cd71 9f3c 76c2 ebbc 6b7f d33d 5b30 4bbd
00000060: 3af7 083d ad74 c73c c8e2 3dbd 26a2 bbbc
00000070: 7e8e 133d e448 3f3c da35 8fbd d4f2 6d3b
00000080: ccec ea3d 99ac 2fbd 4a00 7439 9a32 8bbd
00000090: 2dac 173d 7b39 df3d eb06 963d 81df 3b3d
000000a0: 14af d53d 0148 6abd f0e4 eb3d ed5a 383d
000000b0: 9e5c 053d 725b b4bb b52c a6bc a4ec 7a3c
000000c0: 231b bc3c bef5 283d d68a 49bd d055 b4bd
000000d0: 7f59 963d 45c7 c83d 4abb 76bd 0997 71bc
000000e0: 6c01 673d 0004 da3c c3aa 1fbc 0711 2abd
000000f0: f855 103d a5b2 2a3d b474 203c 27da c73d
00000100: d51f ce3d 6c03 823c 0c7b d2bc 3ae4 b5ba
00000110: 74e3 823c 0b99 433d 1b48 dd3d 57a6 763d
00000120: c595 503c b244 88bd 7a91 8b3d d646 1abd
00000130: de19 95bd 2557 66bd 272a d13c a296 dd3c
00000140: d722 bebd c282 a53d 2114 5c3d 5125 89bc
00000150: aee1 bb3d 74de e3bb ca97 8e3d d5de 3f3d
00000160: 80cc 32bd 98e7 293d e5db ed3c 932e 703d
00000170: 3be4 153e f812 323d 833c a2bc ab4e b73d
00000180: 554e b93c 96c6 73bd eccd d5bc 82d2 99bd
00000190: 1335 8cbd 5e8f a9bb bf65 32bd 1cf9 31bd
000001a0: 9bf1 c33c 893b b7bd dce9 cd3d 10f6 3a3d
000001b0: 8045 c2bd 3e3d 9bbc 4d52 b4bd ea47 cbbc
000001c0: fa89 17bd acbb 743d dd2a c83d ca6f 14bc
000001d0: 24ff 00bd 9b95 6bbd 9747 cbbc 3d22 993d
000001e0: 23d7 023d d932 f03d 836c d03c a65e 8d3c
000001f0: a1f2 963c 5cf8 663b bc09 813d 552b c43d
00000200: ae47 21bb 2caf 883c e573 9e3d 50a2 d4bd
00000210: 33d5 9e3d f896 923d feea 25bc b794 963d
00000220: 4e1e 42bc 524a 863d 3eb2 423d 1392 28bd
00000230: e8ce c33b 484b 8e3c 17fb d53c 6691 363d
00000240: 9f22 2cbc dcd3 a7bc a658 433d 345d cabd
00000250: 4783 b63d 8feb 543d 3714 a13d 41aa e2bd
00000260: f783 4ebc 7a4f b6bc e7de 37bd ea2b 5a3d
00000270: fe84 fa3d 6ead e33c e37f f6bb 5fbd 9c3d
00000280: 3b77 073e fe5f afbc ccca d03c 64ca 98bd
00000290: 00bc 06bd 76ae 633d 6ca4 053e 0ed3 5f3d
000002a0: 4f78 613d faa0 14be eb00 32bd d39b 2a3d
000002b0: 2c58 10bd 903e 123d 4b31 98bd e6f5 f03d
000002c0: a365 dbbd 782e 83bd 88b2 963d 773d 8b3c
000002d0: 705d b43d 59be 0f3d 9295 88bc 3d18 d63c
000002e0: 11b9 153d 35e5 3b3c a2a3 20bd 669d 64bd
000002f0: 292a 843d 9235 1b3d 4ef7 993d 72e8 803c
00000300: 9d3d 30bc 86c4 2e3d cef0 9cbd 9aac cd3c
00000310: 5f4c 1cbd 2e5d 05be 1a28 36bd 916e 13bd
00000320: 6ff0 6ebc a95b fabd 4d80 a33d fbae 853d
00000330: 4a35 b33b ad71 53bd 900c 45bd e4f9 423d
00000340: 9136 133d 43c5 de3c 3b1f 8cbd bd43 2c3d
00000350: ada7 963d 84e1 d0bd 64cc b53c b131 92bd
00000360: a052 9abd cdcb 38bd 3d1b 8e3d f7fd 8e3d
00000370: 9c17 3d3d 101c 9bbd 36df 3e3d 7d9a 70bc
00000380: 0018 40bd 7dfc 933d 5769 c83c 0c94 8abd
00000390: d286 82bd ad85 0abd 1a20 433d 1b16 89bd
000003a0: 69d1 28bd 875f 20bd 064a 7b3c 62a4 9c3d
000003b0: e1c3 05bd 3903 01bd e654 17bd bd72 b03d
000003c0: 9461 15bc 6055 ad3d dc40 07bd 2a8a 0c3c
000003d0: 82d4 8e3c d6e7 9e3d 7962 96bd a59f 46bd
000003e0: f9ea 073d 5433 26bc 7c7c 5abd 2613 713d
000003f0: d4e1 1c3e 0a1d cf3b 383b 3ebd 6f1b a43d
0.04579054 -0.022839785 -0.054720145 -0.018499764 0.047628608 0.029901557 0.09236459 -0.03951293
0.04658189 -0.006586985 0.08583917 0.059983037 -0.043807365 0.0015852264 0.021838458 -0.058690988
-0.034146585 -0.010714373 0.06593216 -0.005542958 0.019463444 -0.02877925 0.103270374 -0.049606662
0.0334389 0.024347628 -0.046358854 -0.022904467 0.036024563 0.011675093 -0.06992693 0.0036308067
0.11470947 -0.04288921 0.00023269761 -0.06796761 0.037029434 0.108996354 0.07325538 0.045867447
0.10433784 -0.057197575 0.11518276 0.04500859 0.03255903 -0.005504065 -0.02028499 0.015315209
0.022962159 0.041249983 -0.04920467 -0.0880543 0.07341289 0.09803633 -0.060237207 -0.014745482
0.05639784 0.026613235 -0.009745303 -0.041520145 0.035238236 0.041674275 0.009793449 0.09758406
0.10064665 0.015870772 -0.025693439 -0.0013877221 0.015977599 0.047753375 0.10804769 0.060217228
0.01273102 -0.066537276 0.06814857 -0.03766521 -0.072803244 -0.05623545 0.025532795 0.027049366
-0.09283989 0.08081581 0.053730134 -0.016741427 0.09173904 -0.0069540087 0.06962545 0.04684337
-0.043652058 0.04148063 0.029035518 0.058638167 0.14637844 0.04347512 -0.019804245 0.089505516
0.02262036 -0.05951556 -0.026099168 -0.07510854 -0.068460606 -0.0051745614 -0.043554064 -0.04345046
0.023918917 -0.08946902 0.10054371 0.04564482 -0.09485912 -0.018950101 -0.0880476 -0.024814565
-0.03699682 0.05974929 0.097738005 -0.009059856 -0.03149332 -0.05751572 -0.02481441 0.074772336
0.03194345 0.117284484 0.025442367 0.017257046 0.018426241 0.0035243249 0.06300685 0.095785774
-0.0024609375 0.016685091 0.07736949 -0.10382521 0.07755508 0.07157701 -0.010126827 0.07352584
-0.0118480455 0.06557144 0.047533266 -0.041154932 0.005975593 0.017369881 0.026120706 0.044572257
-0.010506301 -0.020486765 0.047691964 -0.09881058 0.08911758 0.05198246 0.07865184 -0.110676296
-0.012604705 -0.022254694 -0.04489031 0.053264536 0.122323975 0.027792659 -0.0075225695 0.07653307
0.13229077 -0.021408077 0.025487326 -0.07460478 -0.032894135 0.0555863 0.13051003 0.054644637
0.055046376 -0.14514533 -0.043457907 0.04165251 -0.035240337 0.035704195 -0.07431277 0.117656514
-0.10712745 -0.064053476 0.07358271 0.016997082 0.08806884 0.03509364 -0.016672883 0.026134605
0.036553446 0.011468221 -0.039218552 -0.05581417 0.06453354 0.037892886 0.07517873 0.015735839
-0.010756877 0.042667888 -0.07663117 0.025106717 -0.03815877 -0.13023826 -0.044471838 -0.035994116
-0.014583691 -0.12224514 0.07983456 0.065275155 0.005468999 -0.05162208 -0.048107684 0.047601596
0.03594071 0.027193671 -0.06841894 0.042056788 0.073562 -0.10199264 0.022192188 -0.07138384
-0.07535291 -0.045116235 0.06938789 0.06982034 0.046165094 -0.07573712 0.04659959 -0.01468527
-0.04689789 0.07225893 0.024464292 -0.06766519 -0.06373371 -0.03381889 0.047638036 -0.066936694
-0.041215334 -0.039153602 0.015337473 0.07648541 -0.032657508 -0.031497214 -0.0369462 0.086156346
-0.009117503 0.084635496 -0.03302084 0.008577863 0.017435316 0.07759063 -0.07343001 -0.048492093
0.03318307 -0.0101440735 -0.053341374 0.058856152 0.15320522 0.0063206004 -0.046443194 0.08013045

sequential_3/conv2d_21/Conv2D f4 [64, 3, 3, 64]
00000000: 6045 a3bd f3a9 8d3b 4887 673d a0f9 63bc
00000010: b0ac 523d f1bd 8e3c cca5 73bb 50f6 fd3c
00000020: 8a27 1ebd 87af 5fbd 1a74 7fbd b54e 09bd
00000030: 8fa6 12bd bc84 693a 8156 31bd c575 a2bb
00000040: 44e1 ab3c d3a6 be3c 8ee0 3e3d 76ad 78bd
00000050: 91bb 8bbd 6e7e 69bd 0cb2 8abc a8ca ba3c
00000060: 9b20 0a3d f40c 3cbd 2796 88bb c49e 113d
00000070: 5c44 153d db81 e9bc bea7 bf3c 8181 9ebd
00000080: 9535 6abd 9995 78bd ed5a 00bd ae48 9bbc
00000090: 6068 003d 4f7e 3b3d 6d8d 09bd ac24 873b
000000a0: 60c5 b8ba f367 2c3d f461 4f3d e5a2 153d
000000b0: 545f 2fbd 9563 88bd 7f8e 02bd 84ce 81bd
000000c0: 9147 db3b 778b d3bc 081a 033d 8510 90bd
000000d0: fd43 7ebd caa1 d3bc 523a e2bc 988b b6bc
000000e0: df6b 89bd 3eac 7cbd 18d4 153d 480b 8abd
000000f0: 8ecd 5a3d d023 42bc 01d1 b83c 72e6 143d
00000100: 20ad 253c 1c00 973c 4561 a9bc 3174 813d
00000110: b6fd 89bc b6d6 3dbd 606d 1abd b02a 243c
00000120: d9cb 59bd e25c 5b3d 4150 b6bc 7eb1 8dbd
00000130: 60c5 5d3d e893 4fbd b0dc 3c3a 054c a5bd
00000140: cb9e 48bd 7cd5 823d e5f8 a1bc 057c 48bd
00000150: 301e 24bd 3a46 9bbd a33b eebc ab06 abbd
00000160: 0091 e5bc 4e1e 543d feba 203b 1603 903c
00000170: a1c7 83bd 862d b33d 2437 0a3d 22b0 3ebd
00000180: 42cd 33bc c818 59bd 5bae 9e3c d263 813d
00000190: 6099 4d3c 1d80 09bc 030b 3cbd d63e 5abd
000001a0: 65f0 5dbd 8bdc 0d3b 5a49 3b3d 72b8 843d
000001b0: 056b 49bc 7c63 63bd 6373 81bc 3511 bc3c
000001c0: 0c64 20bd 8ac0 103d 1aba 25bd 8238 fa3c
000001d0: 9308 39bc f6f6 49bd 34b9 4ebd ac00 19bd
000001e0: 126c c53c bf6f e13c 8dee 93bd d24c 933c
000001f0: 1c54 dabb a1c9 f8ba 6a06 00bd 2e46 2a3d
00000200: 11e3 db3b 5967 6ebd c800 b03c 6b9d f83c
00000210: 15b7 4c3d 42ee 58bb cc99 8fbc 2c6f a2bd
00000220: eb9c a6bc 3a41 643d cedc b33c 0d59 fbbc
00000230: e07f 23bd 6f76 d43b e19f 473d 1f35 86bd
00000240: f5a0 93bd 4c3d 013d 56ef c43c d8e1 1b3c
00000250: 1e74 123c d944 073d 448b 443d d566 dbbc
00000260: f95b bd3b 8475 47bd dd0c f4bb 3c19 1d3d
00000270: 1cda a03c 7e3a 8c3d 9724 593d 8804 11bd
00000280: b80c abbd 1a80 8fbd f335 a63b bdaa 783d
00000290: 1b2a 97bd d844 27bc 85a3 c23c dfdb 2fbd
000002a0: b192 04bc 5015 983c a5b7 6c3d 28fc 053d
000002b0: 5fb7 a7bc 5b1c 813d 517d 233c 809c 91bd
000002c0: 7a19 87bd 4cdf 97bd 8998 4bbd 70f4 98bd
000002d0: dd38 af3c 90b1 843d 2e54 6f3c c443 c13b
000002e0: 079e 103d 7d3d 563c a682 68bd 6012 0e3d
000002f0: 2078 9fbc 0e22 b8bb 69ca 84bd 8767 e43c
00000300: 064e 96bb d132 42bd a9ca 5b3c 9d64 943b
00000310: 861e 8ebd 5134 abbd c81a 59bd 4a72 ec3c
00000320: ede7 2bbc eba6 fa3c 371a 85bc 5612 45bd
00000330: 26d7 16bd 4038 86bd 11ca 143c 6449 67bd
00000340: 58a2 363d e194 533d ce7f 733d c91d 553d
00000350: 3b46 f6bb 1ef3 2dbd 9085 9ebd 24bf 393d
00000360: 3801 40bb f459 1abd 32a4 c13a 7bdb a73c
00000370: c2d6 e9bb 364b 783d 886f a3bc 9f98 80bb
00000380: f3a0 fa3c 1a8e 4d3d bdb2 94bd 0985 20bd
00000390: 857f 44bb e47a c93c 221a 303c 1e3d 1e3c
000003a0: f079 533c a649 62bd 3cb6 893d c92d 9c3c
000003b0: 8398 8abd 3fea 9abd 5cbe 103d 0287 843d
000003c0: 1e5b d2bc b064 d83b f28d 3bbd de6b 323c
000003d0: 052d 4bbd 1033 523c 7141 5f3c 5018 4abb
000003e0: 0e7b 6fbc 642e 83bd ada6 9dbd b675 54bd
000003f0: 2323 cb3c ddf2 34bd e2be 843d 9c8d 2c3d
-0.079722166 0.004323238 0.0565255 -0.013914496 0.05143422 0.017424555 -0.003717768 0.03100124
-0.038611926 -0.054610755 -0.062366582 -0.033522326 -0.035803374 0.00089080236 -0.043295387 -0.004957887
0.020981438 0.023272907 0.04660087 -0.0607123 -0.06822885 -0.05700534 -0.016930602 0.022801712
0.0337225 -0.04591079 -0.00416829 0.0355518 0.036442146 -0.028504303 0.023395415 -0.07739545
-0.057180006 -0.060689542 -0.031336714 -0.018955555 0.03134954 0.045774754 -0.03358214 0.0041242447
-0.0014096908 0.04209132 0.050630525 0.0365323 -0.04281552 -0.06659619 -0.031874176 -0.06338218
0.006691881 -0.025823338 0.032007247 -0.07034401 -0.062076557 -0.025833983 -0.0276157 -0.02228336
-0.06710028 -0.0616877 0.03657922 -0.06740433 0.05341869 -0.011849359 0.022560598 0.036352582
0.010112077 0.01843267 -0.020676265 0.0632099 -0.016844612 -0.046347342 -0.037701964 0.010019943
-0.05317292 0.053555377 -0.022255065 -0.069186196 0.05414331 -0.050678164 0.0007204516 -0.0807114
-0.04897956 0.06388375 -0.019772002 -0.0489464 -0.04006785 -0.07581754 -0.029081171 -0.08350881
-0.028023243 0.051786713 0.0024525519 0.017579596 -0.064345606 0.08748917 0.033743992 -0.046554692
-0.01097423 -0.05300215 0.019370249 0.06317867 0.0125487745 -0.008392361 -0.04590894 -0.05328258
-0.054184336 0.0021646346 0.04572425 0.06480493 -0.012293582 -0.055514798 -0.015802091 0.022957424
-0.039157912 0.03533987 -0.040460683 0.030544523 -0.011293548 -0.049307786 -0.050469592 -0.037354156
0.024099384 0.027519105 -0.07223234 0.017980967 -0.0066628587 -0.0018980989 -0.031256117 0.041570835
0.006710418 -0.05820403 0.021484748 0.0303485 0.049979288 -0.0033100997 -0.01752939 -0.079313606
-0.020338496 0.055726267 0.021955874 -0.030682111 -0.039916873 0.006483845 0.048736457 -0.06553101
-0.072084345 0.031552598 0.024039906 0.009514295 0.008938817 0.033024643 0.047984377 -0.026782433
0.0057787863 -0.048696056 -0.0074478225 0.038354144 0.019635253 0.06847094 0.05301341 -0.035404712
-0.08352035 -0.07006855 0.005072349 0.060709704 -0.07381078 -0.010209285 0.023759613 -0.042934295
-0.008091615 0.01856485 0.057792325 0.032711178 -0.02047318 0.063042365 0.009978608 -0.07109928
-0.06596656 -0.074156374 -0.049706016 -0.07468498 0.02138942 0.0647918 0.014607472 0.005897971
0.035306957 0.013076183 -0.05676522 0.034685493 -0.01946646 -0.005619294 -0.06483919 0.027881397
-0.004586938 -0.047411744 0.013415017 0.0045285956 -0.06939416 -0.08359588 -0.053004056 0.028863091
-0.010492307 0.03059717 -0.016247852 -0.04811319 -0.036826275 -0.065536976 0.0090813795 -0.056466475
0.044588417 0.051655654 0.059448056 0.05203036 -0.0075156963 -0.042468183 -0.07740319 0.0453483
-0.0029297601 -0.037683442 0.0014773665 0.020490399 -0.007136197 0.0606186 -0.019950643 -0.003924444
0.030594325 0.050184347 -0.07260654 -0.039189372 -0.0029983234 0.024594732 0.010748418 0.009658126
0.01290749 -0.055246018 0.067242116 0.0190648 -0.067673706 -0.0756421 0.03533779 0.06471063
-0.025678214 0.0066037998 -0.045789666 0.010889975 -0.04960348 0.012829557 0.013626442 -0.0030837245
-0.014616741 -0.06405333 -0.076978065 -0.05187007 0.024797028 -0.044176925 0.064817205 0.042127237

sequential_3/conv2d_22/Conv2D f4 [64, 3, 3, 64]
00000000: b3e4 2c3d 3596 003d a338 a3bd 5cfc 393c
00000010: 42de ccbd 9907 06bd 0afd 28bd b55a eabd
00000020: 9b7c 8ebd 8216 c939 a60b b5bd d4e7 a6bd
00000030: 42ea 82bd 8ebe dbbd 8e8d 7fbd 2fc6 d9bd
00000040: 06e2 89bd 5083 edbc 4d6f 5dbd 8b13 87bc
00000050: 0ac4 82bd 183d 8dbd 6ca6 60bd d5ce a1bd
00000060: 4fab 6fbd 527b 6bbd b60d 26bd adb5 3abd
00000070: b552 8b3d 4316 acbd 1cc7 33bc eb49 dcbd
00000080: be13 9bbd d7a9 eb3b 2a2f 093a 8c5b 08be
00000090: 99ab c9bc c7b3 bfbc 7a0b cdbc f561 b2bd
000000a0: c16b 84bd 8b8e 3fbd 33c3 78bd 5b65 13be
000000b0: 50df 33bd e02a 4fbd b17a c0bc 564d febd
000000c0: 517a 49bd 1554 35bd d971 90bc 1e4e 71bd
000000d0: f105 c7b9 984f 99bc 5a91 10bd 8ff2 28bd
000000e0: c332 91bd 0b9a 09bd 03d9 03be 9c2c 19bc
000000f0: 0067 4dbd 09b7 fa3c 9c53 3d3c 7a6e 9bbd
00000100: 21d2 4bbc deb2 583c 0d24 0c3c 898e 86bd
00000110: c4e2 cfbd 7b3a 383c d0fe b4bd ef03 7bbd
00000120: eee8 73bd 4485 ecbb edef 9abd 4f1d 95bd
00000130: 8954 adbd 58a8 aa3b 9f62 523d 99a2 21bd
00000140: f320 e63c 8c94 87bc 6648 47bd f167 3ebd
00000150: 21a3 563d 610a d2bd becf 1ebd 9fde dfbc
00000160: 96e1 b53c 47fa 2fbd 805f 0cbc 688d cf3b
00000170: e5bd 813c b280 a1bd e280 5c3d 7367 283d
00000180: 4166 7dbd 1f60 963d 32f5 38bb 1595 cc3b
00000190: 8659 89bd b9bf 6f3d 648f 0b3d 85e3 c9bd
000001a0: f9e4 7b3d b3d0 8dbc 9751 7abd 8c30 e63c
000001b0: 9b88 abbc 3a35 9fbd d6f3 9fbd 6b4a 123d
000001c0: bc6f b0ba b667 63bc e2fa e5bc 25fc 44bd
000001d0: 8f26 9abc c409 f4bc 7f7c 88bd 63c8 87bc
000001e0: 6ca6 d7bc c9ac 8d3d d488 efbc 88d7 eeba
000001f0: 79fd 873d e3b6 313a 5724 6dbd 16c4 c5bd
00000200: c1c8 ac3b fe4b 60bc e52a 09bd f469 963d
00000210: 5e6e cb3c 95cf d93c 26c7 4dbd 8018 853c
00000220: 0abe a53d 0bc1 1e3d 0c98 3b3c d1e3 bd3c
00000230: aab3 80bd 26e3 b7bc 95b1 43bd 2676 51bb
00000240: 8895 acbd ab5e 6f3d 3fda fc3c 9743 da3b
00000250: 9f79 803d 2d20 ccbd b281 eabc 176e c13b
00000260: db6e 90bd 24e4 433d a200 68bb 01a1 593c
00000270: 1996 f3bc d31c b7bd 7265 753d 80de 92bd
00000280: bafc 04bc 3086 1ebc 7245 4cbd d8b5 46bd
00000290: c047 da3c 0120 0abd 299c 803d 694a c2bd
000002a0: 3bb1 9f3c 0537 003d ef92 58bc 8c60 483c
000002b0: 45c8 bcbb 3fb1 e2bc 3a91 debd 921c d03b
000002c0: 04c0 cbbc d819 96bd 2975 53b9 4ba5 0f3d
000002d0: fda6 d9bc e54c 4dbd 5f0a acbd f545 bb3c
000002e0: cc56 82bd 7015 08bd 50a1 b7bd 8e70 4fbd
000002f0: aadc 17bd 3cca 85bc 060f 973d 36ca 14bc
00000300: 892d 503d 3ab8 fc3b e678 debd 973e 473c
00000310: 8e72 b6bd d2b0 ddbd 55a9 f53c fcb9 c1bd
00000320: f97d aebc 5a97 57bd eb47 79bd 5dc0 99bd
00000330: 9c6a 993c a425 70bd 8767 a83a 0f25 2bbd
00000340: a61c 713d 44ac bebd f3d4 093d 9458 053d
00000350: 249c 863d cf05 793d 5a05 263d 4ea5 d2bd
00000360: 7975 e73c a873 8f3d 0160 56bd 022e aabd
00000370: 495a cd3c 4f76 a6bc 69ea 60bd 60a2 d3bc
00000380: 3aed d63c 3a7c 973d 85de b8bd e43d 85bd
00000390: ed1e c4bd 3e90 bfbd cca8 973d 9eb3 3bbd
000003a0: 6b20 c1bd a5a3 e83c 5512 87bd 5b01 06be
000003b0: cfe2 83bc 399f e8bd 74b6 f4bc 105c aebd
000003c0: 5bab ba3c b373 da3c 54a1 87bd 4894 1b3d
000003d0: e0f3 f8bc 62ab 96bd 0b2a 783d 3383 b93d
000003e0: 00df c9bc c63d e1bd 7d20 12bd 186f f3bc
000003f0: 2403 18bd b4c1 debb 3750 2ebc 86e2 93bc
0.042210292 0.03139325 -0.07969787 0.011351671 -0.1000333 -0.03272209 -0.04125694 -0.11443082
-0.0695736 0.00038354477 -0.088401124 -0.081496865 -0.063923374 -0.10729705 -0.062390856 -0.10633504
-0.06732564 -0.028993279 -0.054061223 -0.016488811 -0.06385048 -0.06896418 -0.054846212 -0.07900778
-0.058512982 -0.057490654 -0.04054042 -0.045583416 0.068028845 -0.084026836 -0.010972764 -0.10756286
-0.07572125 0.0071918773 0.0005233163 -0.13316172 -0.024617957 -0.023401154 -0.025029887 -0.0871009
-0.06465865 -0.0467668 -0.06073303 -0.14394133 -0.04391414 -0.050578 -0.023496004 -0.124170944
-0.049188916 -0.04426964 -0.017632412 -0.05891239 -0.00037960664 -0.018714711 -0.035294868 -0.041246947
-0.0708976 -0.033594172 -0.12875752 -0.009349015 -0.050147057 0.030604856 0.011555579 -0.07589431
-0.012440235 0.013226239 0.008553517 -0.06570155 -0.10150674 0.011244412 -0.08837664 -0.06128305
-0.05954831 -0.007218035 -0.075652935 -0.07280981 -0.084633894 0.0052080564 0.051363584 -0.039461706
0.028091883 -0.016550325 -0.04865303 -0.046485845 0.052401666 -0.10255886 -0.038772337 -0.027327834
0.022202294 -0.042963292 -0.008567691 0.0063339956 0.01583762 -0.07885875 0.05383385 0.041114282
-0.061865095 0.073425524 -0.002822232 0.006243358 -0.06706528 0.05853245 0.034072295 -0.09857849
0.061497662 -0.01731143 -0.061112966 0.02809932 -0.020939162 -0.07773824 -0.0781018 0.0357155
-0.0013461034 -0.013879707 -0.028073732 -0.048092026 -0.018817214 -0.029789813 -0.06664371 -0.016575044
-0.026324473 0.06917722 -0.02924005 -0.0018222192 0.06640143 0.00067792664 -0.057895985 -0.09656541
0.005272955 -0.013689993 -0.033488173 0.07344428 0.0248329 0.02658824 -0.05023875 0.016247034
0.08092888 0.03875832 0.011449825 0.02317992 -0.06284268 -0.02244718 -0.047776777 -0.003196129
-0.08426958 0.05843989 0.030865787 0.0066608894 0.062731974 -0.099670745 -0.028626297 0.0059030163
-0.07052394 0.047824994 -0.0035400768 0.013283015 -0.029734658 -0.08941045 0.0599112 -0.07171345
-0.008116895 -0.0096755475 -0.049870916 -0.048513263 0.026645541 -0.033721928 0.06279785 -0.09486849
0.01949369 0.03130247 -0.013218625 0.01223005 -0.0057611787 -0.027672408 -0.108675435 0.006351062
-0.024871834 -0.07329148 -0.00020166174 0.035069745 -0.026568884 -0.05012216 -0.08400416 0.022860507
-0.063642114 -0.03322357 -0.08966315 -0.05064445 -0.037075676 -0.016331784 0.07375912 -0.009081414
0.050824676 0.007712391 -0.10862903 0.012160919 -0.08908568 -0.108247414 0.02998797 -0.09459302
-0.021300303 -0.052634574 -0.060859602 -0.075073935 0.018727593 -0.058629647 0.0012848236 -0.04178339
0.058865212 -0.09310201 0.03365035 0.032555178 0.0657275 0.060796555 0.040532447 -0.102854356
0.028254258 0.070044816 -0.05233765 -0.083095565 0.025067465 -0.020320086 -0.05491105 -0.025834262
0.026236165 0.07396741 -0.09026817 -0.06505945 -0.09576211 -0.09353684 0.07405242 -0.045825593
-0.09430011 0.028398344 -0.065952934 -0.13086455 -0.016099362 -0.11358494 -0.029872157 -0.08513653
0.022786787 0.026666498 -0.06622568 0.03798321 -0.030389726 -0.073569074 0.06058697 0.090582274
-0.024642467 -0.109981105 -0.035675514 -0.02971606 -0.03711237 -0.0067979936 -0.010639242 -0.01805235

sequential_3/conv2d_23/Conv2D f4 [64, 3, 3, 64]
00000000: 54ec 8abd b1dc 27bd 0715 3abd 7131 76bc
00000010: 133f c1bc 4fe6 6d3c da49 33bd ffb3 8fbd
00000020: 3fd4 833c d245 da3c 41c4 d43c b50a 893c
00000030: bfee 513c 5c10 3e3d c761 84bd 8619 8a3d
00000040: 882b 663d 31cd 2fbd f49c c4bb e5c5 b3b9
00000050: c774 d93c 91c8 fa3c f249 6dbd 7014 3fbc
00000060: 9e42 953d fec2 b9bc 53e4 48bd 1c08 7fbd
00000070: da25 be3d ddb4 4b3d ac57 cfbb cd9c 5bbd
00000080: fdf8 81bc c310 8cbd 08ad 9e3c d081 4ebd
00000090: 1ad3 bcbc a0c7 8dbd 800f 54bd f051 0dbd
000000a0: cdca a63d bbe9 943d d9c2 d7bc 3ec1 72bd
000000b0: 68c2 a33d 0aa4 e53c 0727 933d c10b 573d
000000c0: 5463 36bd 7a3b 1c3d 310f 65bd 6215 fa3d
000000d0: 065f 363c 7d56 08bb 1322 1dbd 71b4 ab3b
000000e0: 574e 14bd 1cf1 553d eee0 853c 000f 8d3d
000000f0: 16cc 60bd e262 573c 0a42 c7bd 19fd 5e3b
00000100: 2086 7c3d 97dc 613d 98a5 a23c cccd 293d
00000110: e0ee d0bc bc25 353c ffd4 203d e30f 4c3d
00000120: be8d a8bd 1083 de3c ce48 73bd c004 0ebd
00000130: bc60 69bc cb49 383c 0321 4f3d 1899 aa3d
00000140: 6d17 893d eaae 4ebd cd82 d63c 9764 cd3c
00000150: fd95 52bd 345e 8b3d c03c febc c2ce f6ba
00000160: 59d5 793d fd37 81bd ee78 af3d ed41 803d
00000170: b8d3 853d 9893 c1ba a02c 573d 61d4 72bd
00000180: a408 9dbc 1692 153d 580b 943d 9126 bc3d
00000190: 1746 8cbd 01d3 c53b 7680 dbbc aeec efbc
000001a0: 5f83 a93c 745b fbbc 0e21 3fbc 9782 3bbb
000001b0: ea31 583d 8a06 87bc 0ad7 33bd a4c0 49bd
000001c0: 51ea d8bb e86c 053d baba 7e3c 7c17 28bd
000001d0: 6dd5 f73d 9f64 293d 1f12 323c 88fc 5d3d
000001e0: 5d4e 30bd 4a31 ddbc f62b 83bd 1db8 243e
000001f0: 4ad0 ed3b 8d0e d9bc df05 99bc af18 7a3d
00000200: 24f0 aebd 5a93 9dbd 1b90 ffbc 91f1 a23b
00000210: 0057 22bd 288e d4bc b8ef 81bb 26d8 37bd
00000220: 6213 04bd ad96 4a3d 962b 87bd 9f67 5b3d
00000230: 5f0e ba3d bc53 f03d eaed 573c a544 bb3d
00000240: 9ff0 4cbc ac41 cb3c 1471 46bb 9834 643d
00000250: 9d23 073d f301 28bd 43f0 923c 7654 853d
00000260: be51 60bd 4925 943d 42fd a9bc f76c c53d
00000270: 9b20 c6bc 0b14 283e 88e1 543c 12bf a23b
00000280: 86fa e13c 6836 22bc 772f 98bd 80d2 a8bc
00000290: d40a a0bd 0c19 163a de05 6fbd baed 06bd
000002a0: 8a15 f4bc dfaf 02bb 6098 b23d 22ba 55bd
000002b0: 63ef 0d3d fa02 813b 481e 223d 8033 c23c
000002c0: 2834 763c 0d83 0f3d 90f1 683d dd12 9d3d
000002d0: 10bf 6d3d a80b fabc 8fb4 213d 263f 953d
000002e0: 9cd7 5ebd 970a 7f3b 748b 6dbd 43a9 abbc
000002f0: 9da8 c5bd 942d e237 3081 cebc c07e fcbb
00000300: 135d b83d 1a8c 6dbd d297 03ba b2cf a83b
00000310: 56f1 963d 1e99 653d d3f5 53bc bfec 973d
00000320: db8b 1fbc 95e4 54bc ef03 983d 6ed4 2dbd
00000330: 546d 573d 039e 87bc 6c0c d4ba 904c fcbd
00000340: 3f16 493d 6192 523d dca0 9c3d 9648 3c3d
00000350: 739c 903c 2c7c e5bc 4ea9 d83c 78ee 5e3d
00000360: e842 d03d 6a14 883d 6495 803b 8861 9939
00000370: 63ca 1abd 504f dd3d 75ed a03c 2878 1a3d
00000380: f8c5 163c 9a2f e5bd a62e 3e3d 7c69 31bd
00000390: f264 0fbc a5be 8fbc 495b 29bc 1ece d2bc
000003a0: 139e c63c fc25 9cbc 23e0 75bd eb8e 08bd
000003b0: 7acf a63d 081f 8d3c 2196 a83d 7ea0 693c
000003c0: c1aa 54bd 00c7 2b3d 2e5f b73b 58d5 a73c
000003d0: c12c 823d a90b 4b3d 1c23 a4bc a9d5 163d
000003e0: f8fd 45bd 8ae5 81bd f14e 453d 8b08 cd3d
000003f0: 05ff debc 60d1 643d 1750 2bbc 55f9 b6bc
-0.06783357 -0.040981952 -0.04543021 -0.015026436 -0.023589646 0.014520242 -0.043771602 -0.070167534
0.016092418 0.026644621 0.025972487 0.016728738 0.012813269 0.04640232 -0.06463962 0.067431495
0.05619386 -0.042920295 -0.0060001556 -0.00034288983 0.026544942 0.030613216 -0.057931848 -0.0116625875
0.07288097 -0.022675987 -0.049045872 -0.062263593 0.09284563 0.04973303 -0.00632759 -0.053616334
-0.015865797 -0.068391345 0.019369617 -0.050416768 -0.02304988 -0.06922841 -0.051772594 -0.03450197
0.0814415 0.07271143 -0.026338028 -0.05926632 0.079960644 0.028032321 0.07185178 0.052501444
-0.04452832 0.03814266 -0.05592269 0.1221111 0.011131054 -0.0020803504 -0.038362574 0.005240016
-0.036207523 0.052231893 0.016342606 0.06887627 -0.05488213 0.013146134 -0.09729393 0.003402537
0.06165135 0.05514201 0.019854352 0.04145603 -0.02550453 0.01105636 0.03926563 0.04981984
-0.0823016 0.027162105 -0.059395604 -0.0346725 -0.014244255 0.011248062 0.05056859 0.083299816
0.06693921 -0.05045978 0.026185418 0.025072379 -0.05141257 0.06805077 -0.031034827 -0.0018829929
0.06099448 -0.06309507 0.085679874 0.06262574 0.06534523 -0.0014768718 0.052532792 -0.05928457
-0.01916916 0.03651627 0.07228726 0.091870435 -0.06849306 0.0060371165 -0.026794653 -0.029287662
0.020692525 -0.030683257 -0.011665596 -0.0028611773 0.052781977 -0.01648261 -0.04390625 -0.049255982
-0.0066197296 0.032574564 0.015547449 -0.04103802 0.121012546 0.041355725 0.010868578 0.05419591
-0.043043483 -0.027001042 -0.06404869 0.16085859 0.007257496 -0.026496196 -0.018679557 0.061058696
-0.08541897 -0.07694121 -0.031196645 0.0049726446 -0.03963375 -0.025946692 -0.0039653443 -0.04488387
-0.032245047 0.049460102 -0.0660011 0.053565618 0.09084772 0.11734721 0.013179282 0.09143952
-0.01250854 0.024811588 -0.0030279802 0.05571422 0.032992948 -0.041017484 0.017936831 0.0651025
-0.054765455 0.07233674 -0.020750646 0.09639924 -0.02418547 0.16413896 0.012993224 0.004966625
0.02758528 -0.009900667 -0.07430928 -0.020608187 -0.07814565 0.0005725778 -0.058355205 -0.032941557
-0.029795427 -0.0019941253 0.087204695 -0.052179463 0.034652125 0.0039371224 0.03957966 0.023706198
0.015027083 0.03503709 0.056870997 0.076696135 0.05804354 -0.030523136 0.039478835 0.07287435
-0.05440484 0.0038916224 -0.05799432 -0.020954734 -0.09651301 2.6962523e-05 -0.025208086 -0.0077055395
0.090021275 -0.05799494 -0.00050198764 0.0051517123 0.0737025 0.056054227 -0.012937027 0.074182026
-0.009737934 -0.012993951 0.07422625 -0.042438917 0.052594498 -0.016554838 -0.0016178018 -0.12319291
0.04909348 0.05140913 0.07647869 0.04596766 0.017652726 -0.028013311 0.026447918 0.05442664
0.10169011 0.06644519 0.0039240588 0.000292551 -0.037790667 0.10806143 0.019644478 0.037712246
0.009202473 -0.1119072 0.046431206 -0.04331349 -0.008752095 -0.017546961 -0.0103367055 -0.02573305
0.024245298 -0.019061081 -0.060028207 -0.033339422 0.08145042 0.01722671 0.0823176 0.014259456
-0.051920656 0.041937828 0.005596063 0.020487472 0.063561924 0.049571667 -0.020036273 0.036824856
-0.048337907 -0.06342609 0.048170988 0.10011395 -0.027221212 0.055863738 -0.010456107 -0.022335688

sequential_3/conv2d_24/Conv2D f4 [64, 3, 3, 64]
00000000: 3536 d63c 764b 8d3d 7b72 93bd 7f0f 993d
00000010: f87e 54bd cdf8 d3bd 945d 113d c77c f8bb
00000020: 2130 9e3b 4e2e 56bb e058 18bd 95c2 843c
00000030: 7383 e4bc f410 8dbc 4543 453c 7a39 393c
00000040: bd78 27bd fe3a 4e3b aeb7 113d 40a2 2abd
00000050: 26e2 5ebd c0d1 29bc 7f78 aebd 1065 60bd
00000060: 37d2 a93c eaf6 46bd a889 283d 4a46 7fbc
00000070: e68d 44bd fc26 76bd d74d f53c 113e 98bd
00000080: 54ed 30bc bda6 90bd 33e2 db3c f786 633d
00000090: 5e91 a539 9057 97bd 1674 a43d 767f a2bd
000000a0: cf86 a7bd 5903 86bc e6b7 39bd 1650 31bc
000000b0: ad87 93bd af44 ae3d c227 273d deda 1a3d
000000c0: e59d 1bbd bf57 323d 20da 2cbd 385c dc3c
000000d0: c6cf 9e3b 8af4 36bc 28a0 0e3d f4d4 0c3d
000000e0: 53f9 9dbc ae7a c13c b880 80bd 71a5 b1bc
000000f0: 1478 8fbc 71ca 3a3c b7d4 f73c 1fd2 40bd
00000100: bddb e53c 764e 24bd ead8 85bd f457 04bb
00000110: 9d64 173d f711 32bd e1df e53c 92b1 9e3b
00000120: 5db1 cb3d 2873 adbd e42d c7bc 2ccc b53d
00000130: cee5 a3ba b98b 81bc bce3 aa3d 992e 103b
00000140: 4dfb e0bd b164 93bd 1d01 59bd 4c48 b7bc
00000150: ac39 2ebd 23c1 3dbd b4ed 4abc 8b37 333d
00000160: ceb8 213d b2fc aabc 23e9 923d 6004 91bb
00000170: 2ed2 b53d 55b8 85bd 1c7b 0e3c 686d febd
00000180: 0b35 82bd 476c 543d e09b 55bd 9c77 cd3c
00000190: 4d49 85bb 2e8f 82bd 768d aebc 85c6 26bd
000001a0: 9b48 21bd 9934 16bd b3d9 50bd c44f 4e3c
000001b0: be1a dcbb 2ca1 fc3d 8679 4cbd 5b4c 5e3d
000001c0: 99d3 33bd c7af b33d 94d8 8dbc 84fe 043d
000001d0: e879 933d 97d4 863d 8f02 dbbc a252 30bd
000001e0: 45ae 26bc 0e8e 923d d08d 453d 1398 d63c
000001f0: b6c6 c43d 9e45 513d 49eb c13b 2eab 0cbd
00000200: 8d41 0c3c 6122 da39 071b 8c3d 0da3 113e
00000210: 6301 173c 5d38 86bd 8b58 763d 4f06 3d3d
00000220: 7d23 313c b52d 18bc bb7b 66bb c797 a53d
00000230: f63c c0bc 686c 663d af01 ee3d 27b3 e8ba
00000240: c538 89bd 1435 133d cfd5 cd3d d20a 8ebd
00000250: f6a4 95bb d0c0 43bd bf0c 693d c1a2 483d
00000260: de4d 3a3d 0a52 1f3d ea1f 1c3d 86e6 843d
00000270: 2c9b 46bd 8c1f c63c 0bd2 6c3d 8918 70bd
00000280: ed87 4bbe 5f1c ffbc 7a51 b63c 9ee5 ed3d
00000290: 9037 2abc e11c 5cbd 7b88 6c3d 392c fc3c
000002a0: 3844 0ebd 6a67 23bc df53 593d 7115 03bd
000002b0: 8c31 40bd 6802 2e3d 4881 a5bb 23cd fdbc
000002c0: e83f 9d3c ead3 9e3d d366 5c3c a0f6 583d
000002d0: 75b8 363c 1d25 eabc e905 debb 4c43 1ebc
000002e0: 629c f1bd 7c12 2ebd 197f c0bc 3aa3 b13c
000002f0: ff78 e13d b834 73bc 01f6 353d 0739 94bb
00000300: 9199 9d3c dd69 aabd 52c5 9fbd bbfe 02bd
00000310: 6b89 1bbd 0f79 63be 9a43 c53c 6e5e 37bd
00000320: b298 dcbc 8157 30bb 7169 9cbd 59c7 163d
00000330: a5e3 e8bc 145f 013d c68b 59bd bdde a33b
00000340: 1e56 1cbd e86a adbd 6b62 5abd 7310 af3a
00000350: c595 e6bc a55e 47bd d6a2 3ebd e6e8 0e3d
00000360: e56e 743b cd92 94bc 03e0 bdbd 1823 97bd
00000370: 4577 cf3c 47eb 87bd f840 b93c 50ae 36be
00000380: 72f8 18be 9e22 00bd 0c38 873c 56aa 72bd
00000390: 1616 ba3d a589 263c bb26 60bd 465b 733c
000003a0: 998d 35bc 3279 813c 8754 893c dcea bfbd
000003b0: e279 f73b 65e3 343d a0e1 b4bd b0a2 8ebd
000003c0: d6b6 2b3d 2975 503d 47a5 b5bc 2ac0 7abd
000003d0: d3dc 113c f810 773d 18f1 a43d 03e3 d63d
000003e0: ec87 0fbd 8520 e3bc 6fbd f8bc 3544 5c3d
000003f0: e822 133d 1047 9dbd 835f 9ebd 5092 203d
0.026148895 0.06899159 -0.0719957 0.07473659 -0.0518789 -0.10350189 0.035489634 -0.007583234
0.0048275148 -0.0032681408 -0.037194133 0.016206065 -0.027894711 -0.017219998 0.012039964 0.011305207
-0.04088663 0.0031468268 0.03557556 -0.04165864 -0.05441489 -0.01036495 -0.085190766 -0.05478388
0.020730121 -0.04857532 0.041146904 -0.015580723 -0.047986887 -0.060095772 0.029944343 -0.07433713
-0.010798771 -0.07063053 0.026841259 0.055548634 0.0003157956 -0.07389748 0.08029954 -0.079344675
-0.081800096 -0.016359018 -0.045341395 -0.010822317 -0.072036125 0.08509194 0.0408094 0.037806384
-0.037992377 0.043540712 -0.042200208 0.026899442 0.004846546 -0.011166701 0.034820706 0.034382775
-0.019283926 0.023618069 -0.06274551 -0.021685334 -0.017513312 0.011400805 0.030252798 -0.047075387
0.028058881 -0.04011389 -0.06535514 -0.0020194026 0.036961187 -0.043474164 0.028060855 0.0048429454
0.09945939 -0.0846923 -0.024313875 0.08876833 -0.00125044 -0.015813695 0.08344218 0.002200043
-0.10985432 -0.0719694 -0.052979577 -0.022373341 -0.04253547 -0.046326768 -0.012385774 0.04375414
0.039482884 -0.020872448 0.071733736 -0.0044255704 0.08877979 -0.06529299 0.008696344 -0.12423211
-0.063577734 0.051861074 -0.052150607 0.025081448 -0.004067576 -0.063749656 -0.021307688 -0.040716667
-0.039375883 -0.036671255 -0.050988864 0.01259226 -0.006717055 0.123354286 -0.04992058 0.054272037
-0.043902967 0.08773761 -0.017315187 0.032469288 0.07200986 0.06583517 -0.026734618 -0.043047555
-0.010173385 0.07156001 0.048230946 0.026195562 0.096082136 0.051091783 0.0059179408 -0.034342937
0.00856055 0.00041605814 0.068410926 0.14222355 0.009216639 -0.06553719 0.060143035 0.046148594
0.010811684 -0.009288241 -0.0035168964 0.0808559 -0.023466568 0.056255728 0.11621415 -0.0017753587
-0.06700281 0.03593929 0.100505464 -0.069356576 -0.004566784 -0.047791302 0.05689692 0.04898334
0.045484416 0.038896598 0.038116373 0.06489281 -0.048487827 0.024184965 0.0578175 -0.05861715
-0.1987607 -0.031141458 0.022255648 0.11616062 -0.010389224 -0.05373848 0.057747345 0.030782806
-0.034733027 -0.009973386 0.0530585 -0.03200287 -0.04692225 0.042482764 -0.005050812 -0.030981606
0.019195512 0.07755263 0.01345225 0.052969575 0.011152376 -0.02858215 -0.006775607 -0.0096595995
-0.11797406 -0.042498097 -0.023498105 0.021684278 0.11009406 -0.014844112 0.04442406 -0.0045233998
0.019238265 -0.08320973 -0.07801308 -0.03198121 -0.03797285 -0.22214149 0.024080086 -0.04476779
-0.02692828 -0.0026907625 -0.07637299 0.036811206 -0.028428862 0.031584814 -0.053111814 0.0050009177
-0.038168065 -0.084676564 -0.053316515 0.0013356343 -0.028147588 -0.048674244 -0.04654201 0.034890078
0.0037297544 -0.018136406 -0.092712425 -0.073797405 0.025325427 -0.066366725 0.022613987 -0.17839932
-0.14938524 -0.031283014 0.016506217 -0.059244476 0.09086244 0.010164653 -0.054724436 0.014853304
-0.011081123 0.01580486 0.016763939 -0.09370968 0.0075523714 0.044162173 -0.08832097 -0.06964624
0.041922413 0.050892983 -0.022173537 -0.06121842 0.008902746 0.060318917 0.080537975 0.10492518
-0.035041735 -0.027725467 -0.030363766 0.053775985 0.03592196 -0.0767957 -0.07733061 0.039202034

sequential_3/dense_7/BiasAdd/ReadVariableOp f4 [3]
00000000: 9ee4 9cb9 91ea 673d 7540 6ebd
-0.00029924972 0.056620184 -0.05816694

sequential_3/dense_6/BiasAdd/ReadVariableOp f4 [128]
00000000: bacb 47bd 9b66 93bc d8b9 663d 6ae6 c63d
00000010: 8233 aa3d 5120 f33a 602f 4abc 9177 cd3d
00000020: fae1 0d39 ddd3 44bd 7ea0 a0bc 8eac a23d
00000030: 4503 933d ceb5 44bc fa43 25bc 43c8 8339
00000040: fbc2 3b3c 15f9 723c 236a e23d 95f2 9ebd
00000050: 9574 5bbc b7b3 90bb 1554 32bc 030b e13d
00000060: 2ef8 78bc 129d d3bd c704 80bd bd21 0f3e
00000070: 20a8 aabc a598 b5bb 56ae bfbb 8b9b f7bd
00000080: 1bdb ee3d 97d7 943d 38ab 8fbc 8f5b b2bc
00000090: c959 b13d 9c89 24bd 267f b2bc f5ee 1a3d
000000a0: 5fe0 d23d 9a6a 86bd 2157 f63b d5b3 c93d
000000b0: 30b1 c2bc e104 073e d7b0 63bc 011d 9f3d
000000c0: 8c74 4bbd 506b 50bc 5315 3dbd 7062 17bc
000000d0: bc28 c43d 6f0d 203d 4c78 e73d 964e 55bd
000000e0: ccfe c73d e104 f3bb bf5c d73d 7486 dfbc
000000f0: a75b 033e 9c7b de3d 6cef 423d 4ed1 0f3d
00000100: 6963 45bd 3fec 31bd ff47 d33d 1740 0e3e
00000110: 5bd5 38bc 69da ed3d e780 db3c a5c1 c4bb
00000120: 533b e63d 86fb c9ba 8159 74bc 1e83 10bc
00000130: 62d2 bfbc bdd2 953d ab66 77bd 4c3a 84bc
00000140: 056d 89bc 0492 c83d 460c e4bc 5a61 94bd
00000150: c677 d33c 2da3 cf3d 7658 f23d 130f 4b3d
00000160: 525d c03d 70a1 32bd ebdb 873d 62b4 73bd
00000170: 10fe 27bd 2214 7d3d a456 c83d b365 52bc
00000180: a5b5 97bc 395d 30bd 651d 0b3d 3c6f 21bd
00000190: ee5c 39bc 310d 4ebd c52d 4abc b11a 5cbc
000001a0: 0ffc 8b3d e1e8 c73b 35b8 8ebc 36db 023d
000001b0: 46b0 b13d a9ec 593a e29d 40bd d5a6 8a3d
000001c0: 92ee 07bc 1a50 39bd 6713 75bd 6da5 1f3d
000001d0: 51e0 933d b91b 23bd 3287 f23b 04f5 3bbc
000001e0: d734 8c3c 3946 3c3d c63b 81bd 2716 32bd
000001f0: 59bb ad3d a7c7 82bc 7937 64bc c40f 80bc
-0.048778273 -0.017993262 0.05632958 0.09711917 0.083106056 0.001854906 -0.012340397 0.10032571
0.0001353099 -0.04805361 -0.019607779 0.079430684 0.07178358 -0.012006236 -0.010087008 0.00025135474
0.011460061 0.014829894 0.110554 -0.077611126 -0.013394495 -0.004415955 -0.0108843045 0.109884284
-0.015195889 -0.10332693 -0.06250911 0.13977714 -0.020832121 -0.0055418783 -0.00584964 -0.12090214
0.11662885 0.07267683 -0.017537698 -0.021772174 0.08659703 -0.040170297 -0.021789145 0.037825543
0.10296702 -0.065633014 0.007517711 0.09848753 -0.02376613 0.13185455 -0.013897142 0.07769204
-0.049671695 -0.012720898 -0.046162914 -0.009239778 0.09578082 0.03907531 0.11302242 -0.0520769
0.097653955 -0.007416353 0.10515737 -0.027285792 0.12827931 0.1086342 0.04759161 0.035111718
-0.048190508 -0.043438192 0.103164665 0.13891636 -0.011281337 0.11613924 0.026794864 -0.0060045295
0.11241784 -0.0015410043 -0.0149139175 -0.008820323 -0.023415748 0.07315586 -0.060400646 -0.01614108
-0.016775617 0.09793475 -0.027837884 -0.07245131 0.025813948 0.10138545 0.11833279 0.049574923
0.093927994 -0.04361099 0.06633743 -0.0594982 -0.041013777 0.06178678 0.097821504 -0.01284163
-0.018519232 -0.043057654 0.03396358 -0.039412722 -0.01131366 -0.05030555 -0.012340014 -0.013434098
0.06835186 0.0061007594 -0.017421821 0.031947337 0.086761996 0.0008313158 -0.04702557 0.06770102
-0.008296626 -0.045242406 -0.059832957 0.03897612 0.07220519 -0.03982136 0.0074013704 -0.0114719905
0.01711504 0.045965407 -0.06310229 -0.043478157 0.08482999 -0.015964342 -0.013929241 -0.015632518
